save/1-7_att_sp_140.pt (torch, 16082 bytes, 7 tensors)

emb_layer.weight f4 [140, 16]
0	0x00000000	0.0
1	0x00000000	0.0
2	0x00000000	0.0
3	0x00000000	0.0
4	0x00000000	0.0
5	0x00000000	0.0
6	0x00000000	0.0
7	0x00000000	0.0
8	0x00000000	0.0
9	0x00000000	0.0
10	0x00000000	0.0
11	0x00000000	0.0
12	0x00000000	0.0
13	0x00000000	0.0
14	0x00000000	0.0
15	0x00000000	0.0
16	0xbde5e672	-0.112255946
17	0x3fa6b386	1.3023536
18	0x3e6e208a	0.232546
19	0x3f30d455	0.6907399
20	0x3fae3324	1.3609357
21	0xbf9c2ade	-1.2200582
22	0xbf5b1c61	-0.8559018
23	0xbe0e1bb7	-0.1387776
24	0x3ef22878	0.472965
25	0xbf11d21a	-0.56961215
26	0x3f2dacb9	0.6784168
27	0x3f5e51db	0.8684365
28	0x3d80bbec	0.06285843
29	0xbf340a2a	-0.7032801
30	0x3f6531f7	0.89529365
31	0x3ef79375	0.48354688
32	0xbfb0c10e	-1.3808916
33	0xbdf21540	-0.11820459
34	0x3ef5e374	0.48025095
35	0xbeb9515c	-0.36194885
36	0x3f18b0ab	0.59644574
37	0x3f6ee5aa	0.9331919
38	0x3eeb87f2	0.46002156
39	0x3fa9b35e	1.3257864
40	0xbf69097d	-0.910301
41	0x40081c1e	2.1267161
42	0x3fb6b9b8	1.4275427
43	0x4037aee0	2.8700485
44	0xbfd5ecce	-1.6712892
45	0xbf7cde25	-0.98776466
46	0x3f3fb781	0.7488938
47	0xbfc4f5f6	-1.5387561
48	0x3e9cb4a4	0.30606568
49	0xbf20f9b3	-0.6288101
50	0x3e2c8c56	0.16850409
51	0x3ef88798	0.4854095
52	0x3dbdf8ad	0.09275947
53	0x3ebc2c63	0.36752614
54	0xbe0af278	-0.13569057
55	0xbed8d802	-0.423523
56	0xbf4996d6	-0.7874578
57	0xbe13212a	-0.1436812
58	0xbf922391	-1.1417104
59	0x3f87e66a	1.0617192
60	0xbf147c0c	-0.5800178
61	0x3ee18e9e	0.4405412
62	0x3d092c1b	0.033489328
63	0xbf08ec69	-0.53485733
64	0xbf70ee70	-0.94113827
65	0xbedb6078	-0.42847037
66	0xbd1ce7e4	-0.038307086
67	0xbf76f2ff	-0.9646453
68	0x3fce2f7e	1.6108243
69	0x3f72bb01	0.94816595
70	0x3f860000	1.046875
71	0x3f343aa5	0.70401984
72	0x3d4d576c	0.0501322
73	0xbd691f29	-0.056914482
74	0xbf3e6f85	-0.74388915
75	0xbf5b89fd	-0.8575743
76	0xbe8cee1a	-0.27525407
77	0xbf82da59	-1.0222884
78	0x3f074e5b	0.52853936
79	0x3f261087	0.6486897
80	0x3f935381	1.1509858
81	0xbf9a5809	-1.2058116
82	0xbfa1ce38	-1.2641058
83	0xbf84e550	-1.0382481
84	0xbf910c79	-1.1331931
85	0x3fcb3a7c	1.5877223
86	0xbf315ff1	-0.6928702
87	0xbf3df318	-0.74199057
88	0x3e785dc9	0.24254526
89	0xc00c2ad0	-2.190113
90	0xbe81768f	-0.25285766
91	0xbeaa0dc4	-0.33213627
92	0x40042f38	2.065382
93	0xbe7fae9d	-0.24968953
94	0xbf2f5233	-0.684848
95	0x3e05bb2e	0.13059685
96	0xbfe36e23	-1.7767986
97	0xbe8adc1b	-0.27121052
98	0xbf5aff55	-0.85545856
99	0x3f5bdefa	0.8588711
100	0xbe506162	-0.20349649
101	0xbfb7e7f8	-1.4367666
102	0x3f770ffe	0.9650878
103	0x3f802096	1.0009944
104	0x3f8099f3	1.0046982
105	0x3f6085a9	0.8770395
106	0x3e187ae6	0.14890632
107	0xbf058b48	-0.5216565
108	0x3f8de24c	1.1084685
109	0xbe0a8165	-0.13525923
110	0xbf2e6113	-0.68116874
111	0x3e47c9b9	0.19510545
112	0xbf18efdb	-0.5974099
113	0x3dcce88b	0.100052916
114	0x3f5ef290	0.8708887
115	0x3f047116	0.51735055
116	0x3ebeeb4d	0.37288895
117	0xbfd558a5	-1.6667677
118	0xbf364445	-0.7119792
119	0x3f62b78c	0.8856132
120	0xbe131682	-0.14364055
121	0xbed5fd77	-0.4179494
122	0xbf5d4265	-0.86429435
123	0x3f10ad27	0.5651421
124	0xbd9cb798	-0.07652205
125	0x3f50b17c	0.8152082
126	0xc01bafc4	-2.432603
127	0xbea215f3	-0.3165737
128	0x3fc2f9d6	1.5232494
129	0xbd937ac5	-0.07201151
130	0xbf10f2d8	-0.5662055
131	0x3e3b2034	0.18274003
132	0xbfe79474	-1.8092179
133	0xbbb4d994	-0.0055191014
134	0xbf11f3b8	-0.5701251
135	0x3f8ae078	1.0849752
136	0x3d87fda3	0.06640174
137	0xbfa71f3e	-1.3056409
138	0x3e778c0b	0.24174516
139	0xbf57459a	-0.8409058
140	0xbd8ea721	-0.06965471
141	0xbe26e2b2	-0.16297415
142	0xbeb3129b	-0.34975132
143	0xbe940264	-0.28908074
144	0x3f442e3c	0.7663305
145	0xbf3024ea	-0.68806326
146	0xbf9d1313	-1.2271446
147	0xbea0a2fa	-0.3137434
148	0xbe7f36b3	-0.2492321
149	0xbe99366f	-0.29924342
150	0xbfb8c69f	-1.4435614
151	0xbf9ca39e	-1.2237432
152	0xbd410a67	-0.04712906
153	0x3f8d48b5	1.1037813
154	0x3fd9a589	1.7003642
155	0x3ead89be	0.3389415
156	0x3e4f06b6	0.20217404
157	0x3dcc7c3f	0.099846356
158	0x3d8ab543	0.06772854
159	0xbf351d6e	-0.7074803
160	0xbe77bb3c	-0.24192518
161	0x3ee0e3d4	0.4392382
162	0xbfc6eda3	-1.5541271
163	0x3f595b17	0.8490462
164	0x3dcb7840	0.09935045
165	0x3ebbe0f0	0.3669505
166	0x3ddb1c90	0.10698807
167	0xc02b9351	-2.6808665
168	0x3f524ffd	0.821533
169	0xbf1f5c89	-0.6225057
170	0x3f5efb1c	0.8710191
171	0xbf5a6552	-0.8531085
172	0xbefe2203	-0.49635324
173	0xbe9ba8b2	-0.30402142
174	0xbf35a708	-0.70957994
175	0x3ffbe4fa	1.9679253
176	0x3f3e644e	0.743718
177	0x3c3ae7e8	0.01140783
178	0xbf8429cc	-1.0325255
179	0x3f2cd546	0.6751293
180	0x3f2fe380	0.6870651
181	0xbea80552	-0.3281656
182	0x3e814e7d	0.25255194
183	0x3f9400b6	1.1562717
184	0x3ef6204d	0.4807152
185	0xbe8c240c	-0.27371252
186	0xbfaea16d	-1.3643013
187	0xbf3cfe5f	-0.7382564
188	0x3feb1262	1.8364985
189	0xbe2d3483	-0.16914563
190	0x3e916498	0.2839706
191	0x3f1a22a1	0.6020909
192	0xbf443527	-0.76643604
193	0x3f50401c	0.81347823
194	0x3fa21e0d	1.2665421
195	0xbef8ce95	-0.4859511
196	0xbda99bd9	-0.08281679
197	0x3e0737a0	0.13204813
198	0xbe900086	-0.281254
199	0xbde786dc	-0.11305019
200	0xbf7b9632	-0.98276055
201	0x3ef18fca	0.47180015
202	0xbed5433a	-0.41652852
203	0xbf4aed5b	-0.79268426
204	0x3e5acca4	0.21367127
205	0x3f360779	0.7110515
206	0xbf7dd353	-0.9915058
207	0x3e22c883	0.15896802
208	0x3cd03b9d	0.02541905
209	0x3fbcf10d	1.4761063
210	0xbf1ea0b5	-0.6196397
211	0xbf27bb17	-0.6551985
212	0xbea8e7c0	-0.3298931
213	0x3fc78e03	1.5590214
214	0xbeedc8e7	-0.4644234
215	0xbf338fbe	-0.7014121
216	0x3fe36d10	1.7767658
217	0x3f84dc76	1.0379779
218	0xbef5ea13	-0.48030147
219	0x3f011d4e	0.5043534
220	0x3e9d5c21	0.3073435
221	0x3d3894cd	0.045063782
222	0xbfa68b1a	-1.30112
223	0xbf018792	-0.5059749
224	0x3f968b3b	1.176124
225	0x3fc6f22c	1.5542655
226	0xbeab9e19	-0.33519056
227	0xbf7adf6e	-0.97997177
228	0xbfa921d6	-1.3213451
229	0xbef4eebd	-0.47838393
230	0x3f71791e	0.94325435
231	0xbfe5472e	-1.7912347
232	0xbb2fbe6e	-0.0026816386
233	0x3f341953	0.7035114
234	0xbf5b3c86	-0.85639226
235	0xbee5ff08	-0.44921136
236	0x3ee365d5	0.4441363
237	0xbecd639c	-0.40115058
238	0x3e2b4f96	0.16729578
239	0x3f582963	0.8443815
240	0x3fbdbd76	1.4823444
241	0xbcc6a73b	-0.024249664
242	0x3e31cb89	0.17362799
243	0xbe8023c5	-0.2502729
244	0x3d920a07	0.07130819
245	0xbf55dde0	-0.8354168
246	0xbe2455bc	-0.1604833
247	0xbf915248	-1.1353235
248	0x3edf96a3	0.43669614
249	0xbf9cab0c	-1.2239699
250	0x3f37d644	0.7181132
251	0x3f08cc47	0.534367
252	0xbf0e6430	-0.55621624
253	0xbf098676	-0.53720796
254	0x3f8b5bc8	1.0887384
255	0xbf3e2dae	-0.7428845

att.in_proj_weight f4 [48, 16]
0	0x3dd33047	0.103119425
1	0x3d162cf1	0.036663953
2	0xbe3c4aa7	-0.18387853
3	0x3dfaee21	0.12252451
4	0xbd342bf4	-0.04398723
5	0xbe0a5a30	-0.13510966
6	0xbe8aa753	-0.27080783
7	0xbdea5941	-0.11442805
8	0xbe12dc5d	-0.14341874
9	0x3e738b4f	0.23783611
10	0x3d014b08	0.031565696
11	0xbe11f6df	-0.1425433
12	0x3d05cccc	0.032666013
13	0x3e8145b8	0.25248504
14	0x3e827a04	0.25483716
15	0xbe3ffd17	-0.1874889
16	0xbe711c2c	-0.23545903
17	0xbe85fd29	-0.26169708
18	0x3d734760	0.05939424
19	0xbddd89a1	-0.10817266
20	0x3e923e07	0.28562948
21	0x3e930374	0.28713572
22	0xbe1c3d5d	-0.15257783
23	0xbca90fe2	-0.020637456
24	0x3e125f86	0.14294252
25	0x3d8e6b57	0.06954067
26	0x3c0429c0	0.008066595
27	0x3d4b6e60	0.04966581
28	0x3e127e93	0.14306097
29	0xbdd65595	-0.10465542
30	0xbd7c95c0	-0.06166625
31	0xbd56f582	-0.05248023
32	0xbe296510	-0.16542459
33	0xbe7958b4	-0.24350244
34	0xbe13ceef	-0.14434408
35	0xbe8b72d2	-0.27236038
36	0x3e3b1aaa	0.1827189
37	0x3e6abb81	0.2292309
38	0x3e93ff34	0.28905642
39	0x3e9e0285	0.30861297
40	0xbde5dd7d	-0.11223886
41	0xbd200846	-0.03907039
42	0x3d2a7335	0.041613776
43	0x3dd2739b	0.10275956
44	0xbe575739	-0.21029367
45	0xbc16b8a7	-0.009199298
46	0xbe7acc60	-0.24492025
47	0xbe1c68d4	-0.15274364
48	0x3e39dc0d	0.18150349
49	0xbd2f8d73	-0.042859506
50	0x3d38ebd2	0.04514677
51	0xbd865b6c	-0.06560406
52	0xbd2f6496	-0.042820536
53	0xbd8a9bb8	-0.06767982
54	0xbddb1aaa	-0.10698445
55	0xbe9f7f08	-0.31151605
56	0xbe24056a	-0.1601769
57	0xbde620bc	-0.11236712
58	0xbe98bb66	-0.29830474
59	0xbdd7b84b	-0.10533198
60	0x3de332f9	0.11093707
61	0xbc31f103	-0.010860684
62	0x3cc6810e	0.02423146
63	0xbe3dc561	-0.18532325
64	0xbe776ed1	-0.24163367
65	0xbe79df72	-0.24401644
66	0x3d8db45e	0.06919168
67	0x3db61e19	0.088924594
68	0x3e73719d	0.23773809
69	0xbe346949	-0.17618288
70	0x3c3b9af3	0.011450517
71	0x3e86d132	0.26331478
72	0xbdf33733	-0.11875763
73	0x3ca7adc9	0.02046861
74	0x3e938764	0.28814232
75	0xbe3f0af2	-0.18656519
76	0x3e8153b1	0.25259164
77	0x3e015c12	0.12632778
78	0x3e178137	0.14795385
79	0x3e310e7a	0.17290679
80	0x3dcb23fd	0.099189736
81	0xbe99858c	-0.299847
82	0xbb203f2a	-0.0024451711
83	0xbdda47fd	-0.10658262
84	0xbe834a7a	-0.2564276
85	0xbe11bddc	-0.14232582
86	0xbd4f51ab	-0.050614994
87	0x3ea58ffb	0.3233641
88	0x3de8a3c4	0.11359361
89	0x3e284bf5	0.16435225
90	0x3f0f4936	0.55971086
91	0xbc16993e	-0.009191809
92	0xbdac0ca9	-0.08400852
93	0xbdd24a27	-0.1026805
94	0x3e22b064	0.158876
95	0xbd341e14	-0.043973997
96	0xbe993dd6	-0.2992999
97	0x3e8e50b0	0.27795935
98	0xbea33086	-0.31872958
99	0xbbaa99fc	-0.0052063446
100	0x3e4bda36	0.1990746
101	0xbccb61da	-0.024826933
102	0x3c93d651	0.01804653
103	0xbdda5fed	-0.10662828
104	0x3e2d2e34	0.16912156
105	0xbe1d1c0b	-0.15342729
106	0x3eb658fe	0.3561477
107	0xbe38fb0b	-0.18064515
108	0xbd8768b4	-0.066117674
109	0x3e3bfa00	0.18357086
110	0xbd83969c	-0.06425211
111	0x3e71adb1	0.23601414
112	0x3e05dd16	0.13072619
113	0x3d0ce501	0.034398083
114	0xbe135c64	-0.14390713
115	0x3e59709e	0.21234366
116	0xbb215721	-0.0024618583
117	0xbeae985d	-0.3410062
118	0xbd98c094	-0.07458606
119	0x3cdc0ec1	0.026862504
120	0x3bd94c40	0.006631404
121	0x3d5fa90e	0.054604582
122	0x3f183011	0.59448344
123	0xbd80fa48	-0.06297737
124	0x3e7ef188	0.24896824
125	0xbcb78f03	-0.02240706
126	0xbe52b6fe	-0.20577618
127	0xbe1ad014	-0.15118438
128	0xbdb03b04	-0.08605006
129	0x3e40e4e1	0.1883731
130	0xbd931908	-0.07182509
131	0x3e25938d	0.16169567
132	0xbe5a9275	-0.21344931
133	0xbeafae9b	-0.343129
134	0xbe1f9217	-0.15583073
135	0x3efd671c	0.4949273
136	0x3ea94c9a	0.33066255
137	0xbeb99e7f	-0.36253735
138	0x3f2fbd56	0.6864828
139	0xbe980461	-0.2969084
140	0x3ea24daf	0.31699893
141	0xbe48c23d	-0.19605346
142	0x3df14913	0.11781516
143	0xbdd2f864	-0.10301283
144	0xbb107825	-0.0022044268
145	0xbe21eacf	-0.15812229
146	0xbe4cff40	-0.20019245
147	0xbe695d9f	-0.2278962
148	0x3e9e6d25	0.30942646
149	0xbe92af88	-0.28649545
150	0x3e384b1d	0.17997403
151	0x3f19d091	0.6008387
152	0x3e244193	0.1604064
153	0xbdd7ad87	-0.105311446
154	0x3f013cb1	0.5048323
155	0xbdfdd8ba	-0.12394853
156	0x3ea925eb	0.33036742
157	0x3e209df6	0.15685257
158	0xbe69bf42	-0.22826865
159	0x3ccc6a95	0.024953166
160	0x3cd5e1a3	0.026108569
161	0x3e3c6830	0.1839912
162	0xbdb1023e	-0.08643006
163	0x3e856422	0.26052958
164	0xbe09197f	-0.13388632
165	0x3c271f07	0.010200269
166	0xbdacb5a3	-0.08433082
167	0xbe1711f3	-0.14752941
168	0x3dec5440	0.11539507
169	0x3e1db0d2	0.15399483
170	0xbf2b31a4	-0.6687262
171	0x3e6d6d3b	0.231862
172	0xbe68a5b9	-0.22719468
173	0x3e4abb72	0.19798067
174	0xbe80a3e4	-0.2512504
175	0x3df6eaf0	0.120565295
176	0xbf143229	-0.5788904
177	0x3e611e7d	0.21984287
178	0xbecf93a5	-0.4054233
179	0xbe269576	-0.16267952
180	0xb92512df	-0.00015742656
181	0xbe13a4ff	-0.1441841
182	0x3c67669a	0.014123583
183	0x3eb0fa35	0.34565893
184	0xbd14aa7d	-0.036295403
185	0xbed921eb	-0.4240869
186	0x3f38b907	0.7215733
187	0xbddb04b6	-0.10694258
188	0x3e12964d	0.14315148
189	0xbe8ab771	-0.2709308
190	0x3e7b1637	0.24520193
191	0x3ef3f38c	0.4764675
192	0xbe745474	-0.23860341
193	0x3e082fb8	0.13299453
194	0x3e37033b	0.17872326
195	0x3dd97bf4	0.10619345
196	0xbddb2bce	-0.107017145
197	0xbe9b6db1	-0.30357125
198	0xbd8f035c	-0.069830626
199	0x3e0f4510	0.13991189
200	0xbc9655a0	-0.018351376
201	0x3e11b031	0.14227368
202	0x3f111686	0.56674993
203	0xbe20f1f2	-0.15717295
204	0x3cfd1463	0.03089351
205	0xbe951476	-0.29117173
206	0x3d7a1082	0.0610509
207	0x3e2820b9	0.16418733
208	0xbc99015e	-0.01867741
209	0x3e87745d	0.26455966
210	0xbda6fb85	-0.08153442
211	0x3e1d03ff	0.15333556
212	0xbd0418b2	-0.032250114
213	0xbe8066f8	-0.2507856
214	0x3e957ccc	0.29196775
215	0x3ea054a3	0.31314573
216	0x3d815d6d	0.06316648
217	0x3e310099	0.17285384
218	0x3d8a36f5	0.067487635
219	0x3d1ebe1d	0.038755525
220	0xbdb7c3de	-0.089729056
221	0x3e6fc088	0.23413289
222	0x3e1d3be3	0.15354876
223	0x3cebe8a2	0.028797451
224	0xbe789767	-0.24276505
225	0x3e690da8	0.22759116
226	0xbc1eb617	-0.009686968
227	0x3e7d6ecc	0.24749297
228	0x3df2bb17	0.11852091
229	0xbe392736	-0.18081364
230	0x3e69e276	0.22840294
231	0x3e0a2969	0.13492359
232	0xbe6d084e	-0.23147699
233	0x3d10ff2e	0.03539961
234	0x3e1d9f42	0.15392783
235	0x3e25ff56	0.16210684
236	0xbe87e09e	-0.26538557
237	0xbdc037fe	-0.0938568
238	0x3e0175d1	0.126426
239	0x3c658561	0.014008851
240	0x3eb74f1c	0.35802543
241	0x3d06a09b	0.03286801
242	0xbddc8933	-0.10768356
243	0x3df03ef4	0.11730757
244	0x3db69b7f	0.08916377
245	0x3cf1ea13	0.02953056
246	0xbe19d8d2	-0.15024117
247	0xbe838e9e	-0.25694746
248	0x3d3294af	0.043598827
249	0x3e7c13c3	0.24616913
250	0xbe84e983	-0.25959405
251	0x3dddc2b0	0.10828149
252	0xbe85f8de	-0.26166433
253	0xbd8b4777	-0.0680074
254	0xbd3d0238	-0.046144694
255	0x3ab7144f	0.0013967844

att.in_proj_bias f4 [48]
0	0x3d9cf3dd	0.07663701
1	0xbc090a43	-0.008364263
2	0xbd20a2fa	-0.039217927
3	0x3e6628ee	0.22476551
4	0xbe62198b	-0.22080056
5	0xbe3fb5c5	-0.18721683
6	0xbe338f98	-0.17535245
7	0xbe495772	-0.19662264
8	0xbe21414f	-0.1574757
9	0xbe6f23f7	-0.23353563
10	0x3e1ae139	0.15124978
11	0xbe7cba79	-0.24680509
12	0xbe459a17	-0.19297062
13	0xbdca6f9d	-0.0988457
14	0xbd4cb0b7	-0.049973216
15	0x3e7041fc	0.23462671
16	0xb1453ba4	-2.8701175e-09
17	0x324b9b19	1.185142e-08
18	0x3274327f	1.4214151e-08
19	0x34077ac7	1.2617521e-07
20	0xb4233a73	-1.5201822e-07
21	0xb44a431d	-1.8837132e-07
22	0xb470932e	-2.2405285e-07
23	0xb46e3cfe	-2.2187666e-07
24	0x3359ef59	5.0741935e-08
25	0x32c68c5d	2.3114064e-08
26	0xb0f3485f	-1.7701146e-09
27	0x32fc4168	2.9366404e-08
28	0xb33bbf2b	-4.3713197e-08
29	0xb2e1c9c9	-2.6285209e-08
30	0xb2306221	-1.026686e-08
31	0x33520e64	4.8907523e-08
32	0xbe62017e	-0.22070882
33	0xbdb39132	-0.08767928
34	0xbddfb196	-0.10922544
35	0x3e9f73ad	0.3114294
36	0x3f660f69	0.89867264
37	0x3e9b2e4e	0.30308765
38	0xbed804b9	-0.42191103
39	0xbe5fb999	-0.21848144
40	0xbf0333f2	-0.5125114
41	0xbeeb5188	-0.4596064
42	0x3de8f453	0.11374726
43	0xbeaff38e	-0.34365505
44	0xbe126c18	-0.14299047
45	0x3e8fe61d	0.2810525
46	0xbecc9b3d	-0.39962187
47	0x3f0431c3	0.5163843

att.out_proj.weight f4 [16, 16]
0	0x3b0bf1b0	0.0021353774
1	0x3e17db80	0.14829826
2	0x3c8a8110	0.016907245
3	0xbf2cd2dc	-0.67509246
4	0xbec7778f	-0.38958403
5	0x3d51b115	0.05119427
6	0xbd1c2741	-0.038123373
7	0xbe0c8368	-0.13722003
8	0x3dc92cfa	0.09823032
9	0xbdc05886	-0.093918845
10	0xbd63dfa4	-0.055633202
11	0x3b7fcb4f	0.0039031093
12	0xbe5fad1f	-0.21843384
13	0xbe82e9d7	-0.2556903
14	0xbccdc83c	-0.025119893
15	0xbe2619a0	-0.16220713
16	0xbea9d8c0	-0.3317318
17	0xbe8edc9e	-0.27902693
18	0xbe839d2b	-0.25705847
19	0x3f50efe4	0.81616044
20	0xbb713118	-0.0036802944
21	0xbe764cb9	-0.24052705
22	0xbc6772ec	-0.014126521
23	0x3e628891	0.22122408
24	0x3e4fe776	0.20303139
25	0xbc809952	-0.015698109
26	0x3da28993	0.079363964
27	0x3c90bcc4	0.017668135
28	0x3ef90e48	0.48643708
29	0x3df23ef3	0.11828413
30	0x3f296b59	0.66179425
31	0xbd096c0e	-0.033550315
32	0x3e0e554e	0.13899729
33	0xbd8afed9	-0.067868896
34	0x3e9eb8e5	0.31000438
35	0xbf348cbe	-0.70527256
36	0xbe5cf663	-0.21578364
37	0x3d08a5e1	0.03336132
38	0x3d33885a	0.043831207
39	0x3cf7fe5f	0.03027266
40	0x3db440b7	0.08801406
41	0x3e40adab	0.18816249
42	0x3ea4a408	0.32156396
43	0xbcb6a094	-0.022293366
44	0xbe74aa86	-0.23893175
45	0xbde4b0d4	-0.1116654
46	0xbdfec605	-0.12440113
47	0xbe837cc6	-0.25681132
48	0x3e26285c	0.16226333
49	0x3e99c15f	0.30030343
50	0x3dbf5d5d	0.093439795
51	0xbf0292d0	-0.5100527
52	0xbdb52618	-0.088451564
53	0x3e1d7fdb	0.15380804
54	0x3e34e885	0.17666824
55	0xbe928490	-0.28616762
56	0xbe1e9520	-0.15486574
57	0xbe59dde1	-0.21276046
58	0xbe67d7bf	-0.22640894
59	0x3e7c7324	0.24653298
60	0xbbcca6e7	-0.0062454822
61	0xbdae0554	-0.0849711
62	0x3d510d4c	0.05103807
63	0x3d10aa86	0.035318874
64	0xbe23c537	-0.159932
65	0x3e4b0eff	0.1982994
66	0xbdae6e39	-0.08517117
67	0xbdbe9ad7	-0.09306877
68	0x3e02dbc0	0.1277914
69	0x3d3a1899	0.045433614
70	0xbd5868b4	-0.052834228
71	0xbddbbec0	-0.10729742
72	0xbe0e0080	-0.13867378
73	0x3e0b4621	0.13600971
74	0xbddfb6a3	-0.10923507
75	0xbdbea496	-0.09308736
76	0xbe85a48e	-0.26102108
77	0x3d9dcce3	0.07705095
78	0xbe93e5ca	-0.28886253
79	0x3d257f86	0.04040482
80	0x3e2ef012	0.17083767
81	0xbf546c06	-0.8297733
82	0x3e2e121c	0.16999096
83	0xbee4f57d	-0.44718543
84	0xbf2e6f09	-0.68138176
85	0x3cfbf7c4	0.030757792
86	0x3df70487	0.120614104
87	0x3ed6dea8	0.41966748
88	0x3e39f619	0.18160285
89	0x3e475fa3	0.19470076
90	0xbe1a21c7	-0.15051948
91	0x3dba6cd6	0.0910279
92	0x3e8d3f2d	0.27587262
93	0xbefda25a	-0.49537927
94	0x3e043a40	0.12912846
95	0xbf0a2d54	-0.53975415
96	0x3d197254	0.037462547
97	0xbd0b350b	-0.033986133
98	0x3d94005e	0.072266325
99	0x3e7cfcf4	0.24705869
100	0x3e52f951	0.20602919
101	0xbe5c52cc	-0.2151596
102	0x3e832de2	0.25620943
103	0x3e6f32d3	0.23359232
104	0xbd372a7e	-0.044718258
105	0x3e02bef0	0.1276815
106	0x3e4dd872	0.20102099
107	0x3e3a56da	0.18197194
108	0x3bc50bcb	0.0060133687
109	0xbd99c848	-0.07508904
110	0x3e83ea9d	0.25764933
111	0x3d54e2f2	0.051974244
112	0x3e8b21b5	0.27174154
113	0xbf1a61ea	-0.60305655
114	0xbe2917f9	-0.16513051
115	0xbe83a297	-0.25709984
116	0xbe15d2f5	-0.14631255
117	0xbef1a8b8	-0.47199035
118	0x3ec99743	0.39373216
119	0x3d9c4101	0.07629586
120	0x3e9c6917	0.30548927
121	0xbcc1b431	-0.023645492
122	0x3dbab02b	0.091156326
123	0x3e587bbb	0.2114095
124	0x3e321fc5	0.17394932
125	0xbeb6441c	-0.35598838
126	0xbd291f98	-0.041289896
127	0xbeb0c88a	-0.34528
128	0xbe7c4186	-0.2463437
129	0xbe81d23f	-0.25355718
130	0xbd23a444	-0.039951578
131	0xbde36fa6	-0.111052796
132	0xbe953c15	-0.291474
133	0xbe137e9c	-0.14403766
134	0x3e5e1a17	0.2168964
135	0x3d2cb733	0.0421669
136	0x3e090bc5	0.13383396
137	0x3e688bdb	0.227096
138	0x3da919f2	0.08256902
139	0x3d3e6876	0.04648634
140	0x3dc3d11b	0.09561368
141	0xbd9d090e	-0.07667743
142	0x3f158525	0.5840629
143	0xbe77e7c1	-0.24209501
144	0xbe930312	-0.2871328
145	0xbe91505c	-0.28381622
146	0x3e493cc0	0.1965208
147	0xbe6ef5ca	-0.23335949
148	0xbe8f7587	-0.28019354
149	0x3e612876	0.21988091
150	0xbdff9cf9	-0.12481112
151	0x3da5d926	0.080980584
152	0x3d35c388	0.044375926
153	0x3d37bd17	0.044858065
154	0xbe34f6e6	-0.1767231
155	0xbdfee2b7	-0.12445586
156	0x3d8ae46e	0.06781851
157	0x3e43826e	0.19092724
158	0x3eb32b93	0.34994182
159	0xbe491f93	-0.19640951
160	0xbde001e5	-0.10937861
161	0xbedc6341	-0.43044475
162	0xbe424a93	-0.1897376
163	0x3ec50495	0.38480058
164	0xbead3029	-0.33825806
165	0xbe561034	-0.20904619
166	0xbe08ad2b	-0.13347308
167	0x3e3ed353	0.18635301
168	0xbda97160	-0.08273578
169	0x3d719dd7	0.05898842
170	0xbe7d071a	-0.2470974
171	0x3e81975f	0.253108
172	0x3e803055	0.25036874
173	0xbea63b91	-0.3246732
174	0x3f1b5301	0.6067353
175	0x3b7efa49	0.0038906506
176	0xbe2d7518	-0.16939199
177	0xbea349fc	-0.31892383
178	0xbd95cf75	-0.0731496
179	0x3dc68cab	0.09694799
180	0xbeb091bd	-0.3448619
181	0x3d9f18eb	0.077684246
182	0xbe300602	-0.17189792
183	0xbd977f8e	-0.07397376
184	0x3e4294ad	0.19002028
185	0x3bc5a3c8	0.006031487
186	0xbd66bae5	-0.05633058
187	0xbd83e9ac	-0.06441054
188	0x3ecf5c02	0.40499884
189	0xbde4dd85	-0.11175064
190	0x3ef084de	0.4697637
191	0xbd81dbf0	-0.06340778
192	0x3e84585f	0.25848672
193	0x3d927579	0.071513124
194	0xbe6b5c75	-0.22984488
195	0x3ecf1e9b	0.40453038
196	0x3b6d4923	0.0036206923
197	0xbd9738db	-0.07383891
198	0xbe86dbff	-0.2633972
199	0xbcfd57fa	-0.03092574
200	0xbc46aea1	-0.012126596
201	0xbca34791	-0.019931586
202	0x3cd9cf41	0.026588084
203	0xbe14d211	-0.14533259
204	0x3d99e840	0.07515001
205	0xbe0b5f8b	-0.13610666
206	0xbbaae084	-0.0052147526
207	0x3e8493d9	0.2589405
208	0xbe571835	-0.21005328
209	0x3eda7e0d	0.42674294
210	0x3d299be7	0.041408446
211	0x3f85f9c4	1.0466847
212	0x3ec3e0ac	0.3825735
213	0x3d06edeb	0.03294174
214	0xbe9ab316	-0.30214757
215	0xbe594a3e	-0.21219727
216	0xbe597b85	-0.21238525
217	0x3dd636d0	0.104596734
218	0x3e0253ea	0.12727323
219	0xbd64161f	-0.05568516
220	0x3eab4258	0.33449054
221	0x3e9b3118	0.30310893
222	0xbc8992a6	-0.01679356
223	0x3ee5ecba	0.4490717
224	0x3e189b47	0.14902984
225	0xbf08060c	-0.53134227
226	0x3e9299ca	0.28632957
227	0xbfa0adaa	-1.2552998
228	0xbf166f4b	-0.5876357
229	0xbe8b5a73	-0.27217445
230	0x3f04276f	0.5162267
231	0x3ee67efc	0.45018756
232	0x3e45e114	0.19324142
233	0x3ea4256f	0.3205981
234	0xbd199852	-0.03749878
235	0x3d959f80	0.07305813
236	0xbdaacd22	-0.08339907
237	0xbf13ac1e	-0.57684505
238	0x3e9dc354	0.30813086
239	0xbf27ec80	-0.65595245
240	0x3e5f0be5	0.21781881
241	0xbe83bf71	-0.25731996
242	0x3e6565f2	0.2240217
243	0xbdaf4d3f	-0.085596554
244	0xbe94f34a	-0.29091865
245	0xbd8b03ad	-0.067878105
246	0x3eb77f62	0.35839373
247	0xbdc16720	-0.09443498
248	0xbcb6e296	-0.022324841
249	0x3e550af0	0.20804954
250	0xbdf8917d	-0.12137125
251	0x3db7e7bd	0.089797474
252	0xbd424d00	-0.047436714
253	0xbeb3951e	-0.35074705
254	0x3e092e45	0.13396557
255	0xbea381a0	-0.31934834

att.out_proj.bias f4 [16]
0	0xbe6856d8	-0.22689378
1	0x3d0c012a	0.034180798
2	0xbd4a6fa3	-0.04942287
3	0xbe36c298	-0.17847669
4	0x3d9c64a7	0.076363854
5	0xbe85f23d	-0.26161376
6	0x3d360c9a	0.04444561
7	0xbd406163	-0.046967875
8	0xbe88300e	-0.26599163
9	0xbd175047	-0.036941793
10	0xbd0f8e9f	-0.035048123
11	0x3c337fcb	0.010955761
12	0x3e0792f8	0.13239658
13	0x3e3ef29a	0.18647233
14	0xbed1e38e	-0.40993923
15	0xbdfa6d41	-0.1222787

classifier.weight f4 [3, 16]
0	0xbe9f9d26	-0.31174582
1	0x3f07e11f	0.5307788
2	0xbdfbc5e2	-0.122936025
3	0xbecce87e	-0.40021127
4	0xbe6f7a11	-0.23386408
5	0x3ed77b7a	0.42086393
6	0x3e8e0a8e	0.27742428
7	0x3eeffd08	0.46872735
8	0x3e2f7d81	0.1713772
9	0xbd8947c8	-0.06703144
10	0x3edcaf5e	0.43102545
11	0x3e350faf	0.17681764
12	0x3e2c8a90	0.16849732
13	0xbbd869be	-0.0066044023
14	0x3e56a4ab	0.20961253
15	0x3e4c44eb	0.19948165
16	0x3e9a8970	0.30182981
17	0x3e1f21e3	0.1554027
18	0x3d8b7675	0.06809703
19	0x3e491bf6	0.19639573
20	0xbd5eac91	-0.05436379
21	0x3eeca993	0.46223125
22	0xbe2cad15	-0.168629
23	0xbce4cdf5	-0.02793024
24	0x3ed7ef58	0.42174792
25	0x3eee302f	0.46521136
26	0x3e9db97e	0.30805582
27	0x3ed95af9	0.4245222
28	0xbe5a287e	-0.21304509
29	0xbe51536f	-0.20441984
30	0x3efb9568	0.49137425
31	0x3e0ea4de	0.1393008
32	0x3ebf7628	0.37394834
33	0xbf2faf32	-0.686267
34	0x3ef7a319	0.4836662
35	0x3e4eb857	0.20187508
36	0x3dd71e15	0.105037846
37	0x3e9d786f	0.30755946
38	0xbdc93a8a	-0.098256186
39	0x3e8fa564	0.2805587
40	0xbdb9da88	-0.09074885
41	0xbdaa7d74	-0.083247095
42	0xbebf5021	-0.3736582
43	0xbeb1e439	-0.34744433
44	0xbe5882c6	-0.21143636
45	0xbf3574e9	-0.70881516
46	0x3f40f4e7	0.7537369
47	0x3e276522	0.16347173

classifier.bias f4 [3]
0	0x3f23c1c1	0.6396752
1	0xbe4f2280	-0.20228004
2	0xbe25a4f1	-0.16176201
